…
        "Q": "考慮擲出骰子並採用 Monte Carlo 方法估算條件機率，參考附圖程式碼。\n114 年第二次AI 應用規劃師-中級能力鑑定【公告試題】第三科：機器學習技術與應用考試日期：114 年 11 月 08 日試題公告日期：114 年 11 月 20 日第 11 頁，共 19 頁答案題目事件 A：擲出偶數事件 B：擲出大於 3請問下列何者為條件機率 P(A∣",
        "A": "A_and_B.sum() / (A.sum() * B.sum())",
        "B": "A_and_B.sum() / (A.sum() + B.sum())",
        "C": "A_and_B.sum() / A.sum()",
        "D": "A_and_B.sum() / B.sum() VGG16 是由牛津大學 Visual Geometry Group(VGG)在 2014 年提出的經典卷積神經網路（Convolutional Neural Network, CNN）架構。該模型以簡潔且規則的層堆疊設計聞名，廣泛應用於影像分類、特徵提取及遷移學習等任務。附圖程式碼載入了預訓練的 VGG16 模型，並輸出其完整層級結構及參數統計摘要（如附表） 。請根據此資訊回答42~45 題。 ---------------------------------------------------------------- Layer (type)               Output Shape         Param # ================================================================ Conv2d-1         [-1, 64, 150, 150]           1,792 ReLU-2         [-1, 64, 150, 150]               0 Conv2d-3         [-1, 64, 150, 150]          36,928 ReLU-4         [-1, 64, 150, 150]               0 MaxPool2d-5           [-1, 64, 75, 75]               0 Conv2d-6          [-1, 128, 75, 75]          73,856 ReLU-7          [-1, 128, 75, 75]               0 Conv2d-8          [-1, 128, 75, 75]         147,584 114 年第二次AI 應用規劃師-中級能力鑑定【公告試題】第三科：機器學習技術與應用考試日期：114 年 11 月 08 日試題公告日期：114 年 11 月 20 日第 12 頁，共 19 頁答案題目ReLU-9          [-1, 128, 75, 75]               0 MaxPool2d-10          [-1, 128, 37, 37]               0 Conv2d-11          [-1, 256, 37, 37]         295,168 ReLU-12          [-1, 256, 37, 37]               0 Conv2d-13          [-1, 256, 37, 37]         590,080 ReLU-14          [-1, 256, 37, 37]               0 Conv2d-15          [-1, 256, 37, 37]         590,080 ReLU-16          [-1, 256, 37, 37]               0 MaxPool2d-17          [-1, 256, 18, 18]               0 Conv2d-18          [-1, 512, 18, 18]       1,180,160 ReLU-19          [-1, 512, 18, 18]               0 Conv2d-20          [-1, 512, 18, 18]       2,359,808 ReLU-21          [-1, 512, 18, 18]               0 Conv2d-22          [-1, 512, 18, 18]       2,359,808 ReLU-23          [-1, 512, 18, 18]               0 MaxPool2d-24            [-1, 512, 9, 9]               0 Conv2d-25            [-1, 512, 9, 9]       2,359,808 ReLU-26            [-1, 512, 9, 9]               0 Conv2d-27            [-1, 512, 9, 9]       2,359,808 ReLU-28            [-1, 512, 9, 9]               0 Conv2d-29            [-1, 512, 9, 9]       2,359,808 ReLU-30            [-1, 512, 9, 9]               0 MaxPool2d-31            [-1, 512, 4, 4]               0 AdaptiveAvgPool2d-32            [-1, 512, 7, 7]               0 Linear-33                 [-1, 4096]     102,764,544 ReLU-34                 [-1, 4096]               0 Dropout-35                 [-1, 4096]               0 Linear-36                 [-1, 4096]      16,781,312 ReLU-37                 [-1, 4096]               0 Dropout-38                 [-1, 4096]               0 Linear-39                 [-1, 1000]       4,097,000 ================================================================ Total params: 138,357,544 Trainable params: 138,357,544 Non-trainable params: 0 ---------------------------------------------------------------- Input size (MB): 0.26 114 年第二次AI 應用規劃師-中級能力鑑定【公告試題】第三科：機器學習技術與應用考試日期：114 年 11 月 08 日試題公告日期：114 年 11 月 20 日第 13 頁，共 19 頁答案題目Forward/backward pass size (MB): 96.93 Params size (MB): 527.79 Estimated Total Size (MB): 624.98 ----------------------------------------------------------------",
…
